…
:"ok","timestamp":1550642752397,"user_tz":-540,"elapsed":7043,"user":{"displayName":"junseop so","photoUrl":"","userId":"03070847090635331575"}}},"cell_type":"code","source":["model.summary()"],"execution_count":19,"outputs":[{"output_type":"stream","text":["__________________________________________________________________________________________________\n","Layer (type)                    Output Shape         Param #     Connected to                     \n","==================================================================================================\n","input_1 (InputLayer)            (None, 256, 256, 3)  0                                            \n","__________________________________________________________________________________________________\n","conv2d (Conv2D)                 (None, 256, 256, 64) 1792        input_1[0][0]                    \n","__________________________________________________________________________________________________\n","batch_normalization_v1 (BatchNo (None, 256, 256, 64) 256         conv2d[0][0]                     \n","__________________________________________________________________________________________________\n","activation (Activation)         (None, 256, 256, 64) 0           batch_normalization_v1[0][0]     \n","__________________________________________________________________________________________________\n","conv2d_1 (Conv2D)               (None, 256, 256, 64) 36928       activation[0][0]                 \n","__________________________________________________________________________________________________\n","batch_normalization_v1_1 (Batch (None, 256, 256, 64) 256         conv2d_1[0][0]                   \n","__________________________________________________________________________________________________\n","activation_1 (Activation)       (None, 256, 256, 64) 0           batch_normalization_v1_1[0][0]   \n","__________________________________________________________________________________________________\n","max_pooling2d (MaxPooling2D)    (None, 128, 128, 64) 0           activation_1[0][0]               \n","__________________________________________________________________________________________________\n","conv2d_2 (Conv2D)               (None, 128, 128, 128 73856       max_pooling2d[0][0]              \n","__________________________________________________________________________________________________\n","batch_normalization_v1_2 (Batch (None, 128
…
28 147584      activation_2[0][0]               \n","__________________________________________________________________________________________________\n","batch_normalization_v1_3 (Batch (None, 128, 128, 128 512         conv2d_3[0][0]                   \n","__________________________________________________________________________________________________\n","activation_3 (Activation)       (None, 128, 128, 128 0           batch_normalization_v1_3[0][0]   \n","__________________________________________________________________________________________________\n","max_pooling2d_1 (MaxPooling2D)  (None, 64, 64, 128)  0           activation_3[0][0]               \n","__________________________________________________________________________________________________\n","conv2d_4 (Conv2D)               (None, 64, 64, 256)  295168      max_pooling2d_1[0][0]            \n","__________________________________________________________________________________________________\n","batch_normalization_v1_4 (Batch (None, 64, 64, 256)  1024        conv2d_4[0][0]                   \n","__________________________________________________________________________________________________\n","activation_4 (Activation)       (None, 64, 64, 256)  0           batch_normalization_v1_4[0][0]   \n","__________________________________________________________________________________________________\n","conv2d_5 (Conv2D)               (None, 64, 64, 256)  590080      activation_4[0][0]               \n","__________________________________________________________________________________________________\n","batch_normalization_v1_5 (Batch (None, 64, 64, 256)  1024        conv2d_5[0][0]                   \n","__________________________________________________________________________________________________\n","activation_5 (Activation)       (None, 64, 64, 256)  0           batch_normalization_v1_5[0][0]   \n","__________________________________________________________________________________________________\n","max_pooling2d_2 (MaxPooling2D)  (None, 32, 32, 256)  0           activation_5[0][0]               \n","__________________________________________________________________________________________________\n","conv2d_6 (Conv2D)               (None, 32, 32, 512)  1180160     max_pooling2d_2[0][0]            \n","__________________________________________________________________________________________________\n","batch_normalization_v1_6 (Batch (None, 32, 32, 512)  2048        conv2d_6[0][0]                   \n","__________________________________________________________________________________________________\n","activation_6 (Activation)       (None, 32, 32, 512)  0           batch_normalization_v1_6[0][0]   \n","__________________________________________________________________________________________________\n","conv2d_7 (Conv2D)               (None, 32, 32, 512)  2359808     activation_6[0][0]               \n","__________________________________________________________________________________________________\n","batch_normalization_v1_7 (Batch (None, 32, 32, 512)  2048        conv2d_7[0][0]                   \n","__________________________________________________________________________________________________\n","activation_7 (Activation)       (None, 32, 32, 512)  0           batch_normalization_v1_7[0][0]   \n","__________________________________________________________________________________________________\n","max_pooling2d_3 (MaxPooling2D)  (None, 16, 16, 512)  0           activation_7[0][0]               \n","__________________________________________________________________________________________________\n","conv2d_8 (Conv2D)               (None, 16, 16, 1024) 4719616     max_pooling2d_3[0][0]            \n","__________________________________________________________________________________________________\n","batch_normalization_v1_8 (Batch (None, 16, 16, 1024) 4096        conv2d_8[0][0]                   \n","__________________________________________________________________________________________________\n","activation_8 (Activation)       (None, 16, 16, 1024) 0           batch_normalization_v1_8[0][0]   \n","__________________________________________________________________________________________________\n","conv2d_9 (Conv2D)               (None, 16, 16, 1024) 9438208     activation_8[0][0]               \n","__________________________________________________________________________________________________\n","batch_normalization_v1_9 (Batch (None, 16, 16, 1024) 4096        conv2d_9[0][0]                   \n","__________________________________________________________________________________________________\n","activation_9 (Activation)       (None, 16, 16, 1024) 0           batch_normalization_v1_9[0][0]   \n","__________________________________________________________________________________________________\n","conv2d_transpose (Conv2DTranspo (None, 32, 32, 512)  2097664     activation_9[0][0]               \n","__________________________________________________________________________________________________\n","concatenate (Concatenate)       (None, 32, 32, 1024) 0           activation_7[0][0]               \n","                                                                 conv2d_transpose[0][0]           \n","__________________________________________________________________________________________________\n","batch_normalization_v1_10 (Batc (None, 32, 32, 1024) 4096        concatenate[0][0]                \n","__________________________________________________________________________________________________\n","activation_10 (Activation)      (None, 32, 32, 1024) 0           batch_normalization_v1_10[0][0]  \n","__________________________________________________________________________________________________\n","conv2d_10 (Conv2D)              (None, 32, 32, 512)  4719104     activation_10[0][0]              \n","__________________________________________________________________________________________________\n","batch_normalization_v1_11 (Batc (None, 32, 32, 512)  2048        conv2d_10[0][0]                  \n","__________________________________________________________________________________________________\n","activation_11 (Activation)      (None, 32, 32, 512)  0           batch_normalization_v1_11[0][0]  \n","__________________________________________________________________________________________________\n","conv2d_11 (Conv2D)              (None, 32, 32, 512)  2359808     activation_11[0][0]              \n","__________________________________________________________________________________________________\n","batch_normalization_v1_12 (Batc (None, 32, 32, 512)  2048        conv2d_11[0][0]                  \n","__________________________________________________________________________________________________\n","activation_12 (Activation)      (None, 32, 32, 512)  0           batch_normalization_v1_12[0][0]  \n","__________________________________________________________________________________________________\n","conv2d_transpose_1 (Conv2DTrans (None, 64, 64, 256)  524544      activation_12[0][0]              \n","__________________________________________________________________________________________________\n","concatenate_1 (Concatenate)     (None, 64, 64, 512)  0           activation_5[0][0]               \n","                                                                 conv2d_transpose_1[0][0]         \n","__________________________________________________________________________________________________\n","batch_normalization_v1_13 (Batc (None, 64, 64, 512)  2048        concatenate_1[0][0]              \n","__________________________________________________________________________________________________\n","activation_13 (Activation)      (None, 64, 64, 512)  0           batch_normalization_v1_13[0][0]  \n","__________________________________________________________________________________________________\n","conv2d_12 (Conv2D)              (None, 64, 64, 256)  1179904     activation_13[0][0]              \n","__________________________________________________________________________________________________\n","batch_normalization_v1_14 (Batc (None, 64, 64, 256)  1024        conv2d_12[0][0]                  \n","__________________________________________________________________________________________________\n","activation_14 (Activation)      (None, 64, 64, 256)  0           batch_normalization_v1_14[0][0]  \n","__________________________________________________________________________________________________\n","conv2d_13 (Conv2D)              (None, 64, 64, 256)  590080      activation_14[0][0]              \n","__________________________________________________________________________________________________\n","batch_normalization_v1_15 (Batc (None, 64, 64, 256)  1024        conv2d_13[0][0]                  \n","__________________________________________________________________________________________________\n","activation_15 (Activation)      (None, 64, 64, 256)  0           batch_normalization_v1_15[0][0]  \n","__________________________________________________________________________________________________\n","conv2d_transpose_2 (Conv2DTrans (None, 128, 128, 128 131200      activation_15[0][0]              \n","__________________________________________________________________________________________________\n","concatenate_2 (Concatenate)     (None, 128
…
               conv2d_transpose_3[0][0]         \n","__________________________________________________________________________________________________\n","batch_normalization_v1_19 (Batc (None, 256, 256, 128 512         concatenate_3[0][0]              \n","__________________________________________________________________________________________________\n","activation_19 (Activation)      (None, 256, 256, 128 0           batch_normalization_v1_19[0][0]  \n","__________________________________________________________________________________________________\n","conv2d_16 (Conv2D)              (None, 256, 256, 64) 73792       activation_19[0][0]              \n","__________________________________________________________________________________________________\n","batch_normalization_v1_20 (Batc (None, 256, 256, 64) 256         conv2d_16[0][0]                  \n","__________________________________________________________________________________________________\n","activation_20 (Activation)      (None, 256, 256, 64) 0           batch_normalization_v1_20[0][0]  \n","__________________________________________________________________________________________________\n","conv2d_17 (Conv2D)              (None, 256, 256, 64) 36928       activation_20[0][0]              \n","__________________________________________________________________________________________________\n","batch_normalization_v1_21 (Batc (None, 256, 256, 64) 256         conv2d_17[0][0]                  \n","__________________________________________________________________________________________________\n","activation_21 (Activation)      (None, 256, 256, 64) 0           batch_normalization_v1_21[0][0]  \n","__________________________________________________________________________________________________\n","conv2d_18 (Conv2D)              (None, 256, 256, 1)  65          activation_21[0][0]              \n","==================================================================================================\n","Total params: 31,062,977\n","Trainable params: 31,047,361\n","Non-trainable params: 15,616\n","__________________________________________________________________________________________________\n"],"name":"stdout"}]},{"metadata":{"id":"IF4yHGnOMZWP"
…
