…
03070847090635331575"}},"colab":{"base_uri":"https://localhost:8080/","height":1870}},"cell_type":"code","source":["model = models.Model(inputs=[inputs], outputs=[outputs])\n","model.summary()"],"execution_count":0,"outputs":[{"output_type":"stream","text":["__________________________________________________________________________________________________\n","Layer (type)                    Output Shape         Param #     Connected to                     \n","==================================================================================================\n","input_2 (InputLayer)            (None, 64, 64, 3)    0                                            \n","__________________________________________________________________________________________________\n","conv2d_10 (Conv2D)              (None, 64, 64, 32)   896         input_2[0][0]                    \n","__________________________________________________________________________________________________\n","batch_normalization_v1_13 (Batc (None, 64, 64, 32)   128         conv2d_10[0][0]                  \n","__________________________________________________________________________________________________\n","activation_13 (Activation)      (None, 64, 64, 32)   0           batch_normalization_v1_13[0][0]  \n","__________________________________________________________________________________________________\n","max_pooling2d_4 (MaxPooling2D)  (None, 32, 32, 32)   0           activation_13[0][0]              \n","__________________________________________________________________________________________________\n","conv2d_11 (Conv2D)              (None, 32, 32, 64)   18496       max_pooling2d_4[0][0]            \n","__________________________________________________________________________________________________\n","batch_normalization_v1_14 (Batc (None, 32, 32, 64)   256         conv2d_11[0][0]                  \n","__________________________________________________________________________________________________\n","activation_14 (Activation)      (None, 32, 32, 64)   0           batch_normalization_v1_14[0][0]  \n","__________________________________________________________________________________________________\n","max_pooling2d_5 (MaxPooling2D)  (None, 16, 16, 64)   0           activation_14[0][0]              \n","__________________________________________________________________________________________________\n","conv2d_12 (Conv2D)              (None, 16, 16, 128)  73856       max_pooling2d_5[0][0]            \n","__________________________________________________________________________________________________\n","batch_normalization_v1_15 (Batc (None, 16, 16, 128)  512         conv2d_12[0][0]                  \n","__________________________________________________________________________________________________\n","activation_15 (Activation)      (None, 16, 16, 128)  0           batch_normalization_v1_15[0][0]  \n","__________________________________________________________________________________________________\n","max_pooling2d_6 (MaxPooling2D)  (None, 8, 8, 128)    0           activation_15[0][0]              \n","__________________________________________________________________________________________________\n","conv2d_13 (Conv2D)              (None, 8, 8, 256)    295168      max_pooling2d_6[0][0]            \n","__________________________________________________________________________________________________\n","batch_normalization_v1_16 (Batc (None, 8, 8, 256)    1024        conv2d_13[0][0]                  \n","__________________________________________________________________________________________________\n","activation_16 (Activation)      (None, 8, 8, 256)    0           batch_normalization_v1_16[0][0]  \n","__________________________________________________________________________________________________\n","max_pooling2d_7 (MaxPooling2D)  (None, 4, 4, 256)    0           activation_16[0][0]              \n","__________________________________________________________________________________________________\n","conv2d_14 (Conv2D)              (None, 4, 4, 512)    1180160     max_pooling2d_7[0][0]            \n","__________________________________________________________________________________________________\n","batch_normalization_v1_17 (Batc (None, 4, 4, 512)    2048        conv2d_14[0][0]                  \n","__________________________________________________________________________________________________\n","activation_17 (Activation)      (None, 4, 4, 512)    0           batch_normalization_v1_17[0][0]  \n","__________________________________________________________________________________________________\n","conv2d_transpose_4 (Conv2DTrans (None, 8, 8, 256)    524544      activation_17[0][0]              \n","__________________________________________________________________________________________________\n","concatenate_4 (Concatenate)     (None, 8, 8, 512)    0           activation_16[0][0]              \n","                                                                 conv2d_transpose_4[0][0]         \n","__________________________________________________________________________________________________\n","batch_normalization_v1_18 (Batc (None, 8, 8, 512)    2048        concatenate_4[0][0]              \n","__________________________________________________________________________________________________\n","activation_18 (Activation)      (None, 8, 8, 512)    0           batch_normalization_v1_18[0][0]  \n","__________________________________________________________________________________________________\n","conv2d_15 (Conv2D)              (None, 8, 8, 256)    1179904     activation_18[0][0]              \n","__________________________________________________________________________________________________\n","batch_normalization_v1_19 (Batc (None, 8, 8, 256)    1024        conv2d_15[0][0]                  \n","__________________________________________________________________________________________________\n","activation_19 (Activation)      (None, 8, 8, 256)    0           batch_normalization_v1_19[0][0]  \n","__________________________________________________________________________________________________\n","conv2d_transpose_5 (Conv2DTrans (None, 16, 16, 128)  131200      activation_19[0][0]              \n","__________________________________________________________________________________________________\n","concatenate_5 (Concatenate)     (None, 16, 16, 256)  0           activation_15[0][0]              \n","                                                                 conv2d_transpose_5[0][0]         \n","__________________________________________________________________________________________________\n","batch_normalization_v1_20 (Batc (None, 16, 16, 256)  1024        concatenate_5[0][0]              \n","__________________________________________________________________________________________________\n","activation_20 (Activation)      (None, 16, 16, 256)  0           batch_normalization_v1_20[0][0]  \n","__________________________________________________________________________________________________\n","conv2d_16 (Conv2D)              (None, 16, 16, 128)  295040      activation_20[0][0]              \n","__________________________________________________________________________________________________\n","batch_normalization_v1_21 (Batc (None, 16, 16, 128)  512         conv2d_16[0][0]                  \n","__________________________________________________________________________________________________\n","activation_21 (Activation)      (None, 16, 16, 128)  0           batch_normalization_v1_21[0][0]  \n","__________________________________________________________________________________________________\n","conv2d_transpose_6 (Conv2DTrans (None, 32, 32, 64)   32832       activation_21[0][0]              \n","__________________________________________________________________________________________________\n","concatenate_6 (Concatenate)     (None, 32, 32, 128)  0           activation_14[0][0]              \n","                                                                 conv2d_transpose_6[0][0]         \n","__________________________________________________________________________________________________\n","batch_normalization_v1_22 (Batc (None, 32, 32, 128)  512         concatenate_6[0][0]              \n","__________________________________________________________________________________________________\n","activation_22 (Activation)      (None, 32, 32, 128)  0           batch_normalization_v1_22[0][0]  \n","__________________________________________________________________________________________________\n","conv2d_17 (Conv2D)              (None, 32, 32, 64)   73792       activation_22[0][0]              \n","__________________________________________________________________________________________________\n","batch_normalization_v1_23 (Batc (None, 32, 32, 64)   256         conv2d_17[0][0]                  \n","__________________________________________________________________________________________________\n","activation_23 (Activation)      (None, 32, 32, 64)   0           batch_normalization_v1_23[0][0]  \n","__________________________________________________________________________________________________\n","conv2d_transpose_7 (Conv2DTrans (None, 64, 64, 32)   8224        activation_23[0][0]              \n","__________________________________________________________________________________________________\n","concatenate_7 (Concatenate)     (None, 64, 64, 64)   0           activation_13[0][0]              \n","                                                                 conv2d_transpose_7[0][0]         \n","__________________________________________________________________________________________________\n","batch_normalization_v1_24 (Batc (None, 64, 64, 64)   256         concatenate_7[0][0]              \n","__________________________________________________________________________________________________\n","activation_24 (Activation)      (None, 64, 64, 64)   0           batch_normalization_v1_24[0][0]  \n","__________________________________________________________________________________________________\n","conv2d_18 (Conv2D)              (None, 64, 64, 32)   18464       activation_24[0][0]              \n","__________________________________________________________________________________________________\n","batch_normalization_v1_25 (Batc (None, 64, 64, 32)   128         conv2d_18[0][0]                  \n","__________________________________________________________________________________________________\n","activation_25 (Activation)      (None, 64, 64, 32)   0           batch_normalization_v1_25[0][0]  \n","__________________________________________________________________________________________________\n","conv2d_19 (Conv2D)              (None, 64, 64, 1)    33          activation_25[0][0]              \n","==================================================================================================\n","Total params: 3,842,337\n","Trainable params: 3,837,473\n","Non-trainable params: 4,864\n","__________________________________________________________________________________________________\n"],"name":"stdout"}]},{"metadata":{"id":"NjIJYi_SjMwA","c
…
